{"class_name": "Model", "config": {"layers": [{"class_name": "InputLayer", "inbound_nodes": [], "name": "input_2", "config": {"dtype": "float32", "name": "input_2", "batch_input_shape": [null, 128, 1], "sparse": false}}, {"class_name": "LSTM", "inbound_nodes": [[["input_2", 0, 0, {}]]], "name": "lstm_1", "config": {"kernel_constraint": null, "unroll": false, "return_state": false, "go_backwards": false, "return_sequences": false, "recurrent_dropout": 0.0, "unit_forget_bias": true, "activation": "tanh", "dropout": 0.0, "bias_initializer": {"class_name": "Zeros", "config": {}}, "stateful": false, "kernel_initializer": {"class_name": "VarianceScaling", "config": {"mode": "fan_avg", "scale": 1.0, "seed": null, "distribution": "uniform"}}, "name": "lstm_1", "recurrent_regularizer": null, "bias_regularizer": null, "units": 64, "trainable": true, "kernel_regularizer": null, "implementation": 1, "recurrent_activation": "hard_sigmoid", "recurrent_initializer": {"class_name": "Orthogonal", "config": {"gain": 1.0, "seed": null}}, "use_bias": true, "recurrent_constraint": null, "bias_constraint": null, "activity_regularizer": null}}, {"class_name": "Dropout", "inbound_nodes": [[["lstm_1", 0, 0, {}]]], "name": "dropout_2", "config": {"noise_shape": null, "trainable": true, "rate": 0.1, "name": "dropout_2", "seed": null}}, {"class_name": "Dense", "inbound_nodes": [[["dropout_2", 0, 0, {}]]], "name": "dense_3", "config": {"kernel_initializer": {"class_name": "VarianceScaling", "config": {"mode": "fan_avg", "scale": 1.0, "seed": null, "distribution": "uniform"}}, "name": "dense_3", "kernel_constraint": null, "bias_regularizer": null, "units": 128, "trainable": true, "kernel_regularizer": null, "activation": "relu", "use_bias": true, "bias_initializer": {"class_name": "Zeros", "config": {}}, "bias_constraint": null, "activity_regularizer": null}}, {"class_name": "BatchNormalization", "inbound_nodes": [[["dense_3", 0, 0, {}]]], "name": "batch_normalization_2", "config": {"trainable": true, "scale": true, "name": "batch_normalization_2", "moving_variance_initializer": {"class_name": "Ones", "config": {}}, "gamma_regularizer": null, "moving_mean_initializer": {"class_name": "Zeros", "config": {}}, "epsilon": 0.001, "momentum": 0.99, "gamma_initializer": {"class_name": "Ones", "config": {}}, "gamma_constraint": null, "beta_initializer": {"class_name": "Zeros", "config": {}}, "beta_constraint": null, "beta_regularizer": null, "axis": -1, "center": true}}, {"class_name": "Dense", "inbound_nodes": [[["batch_normalization_2", 0, 0, {}]]], "name": "dense_4", "config": {"kernel_initializer": {"class_name": "VarianceScaling", "config": {"mode": "fan_avg", "scale": 1.0, "seed": null, "distribution": "uniform"}}, "name": "dense_4", "kernel_constraint": null, "bias_regularizer": null, "units": 3, "trainable": true, "kernel_regularizer": null, "activation": "softmax", "use_bias": true, "bias_initializer": {"class_name": "Zeros", "config": {}}, "bias_constraint": null, "activity_regularizer": null}}], "output_layers": [["dense_4", 0, 0]], "input_layers": [["input_2", 0, 0]], "name": "model_2"}, "backend": "tensorflow", "keras_version": "2.1.5"}